Intro To Torch/ffnet.pth (torch, 815699 bytes, 4 tensors)

dense_layers.0.weight f4 [256, 784]
-0.00067880756 -0.030927762 -0.020958943 0.0020200526 0.032044187 0.021249585 0.00784341 0.0123159
0.0037912005 -0.0074495166 -0.003461774 -0.003983434 -0.026930213 -0.044063084 0.0466761 -0.023300817
-0.025993118 -0.019736623 0.014450112 -0.032600522 -0.034737647 0.008956969 -0.0012646872 -0.0011631635
-0.027751759 -0.033995174 -0.017494773 0.004933992 0.02693859 0.010570488 0.01069003 -0.026363485
-0.031296544 -0.030356344 -0.04136194 -0.033765208 -0.050166093 -0.05598723 -0.04759592 -0.14238498
-0.1359509 -0.035332054 -0.08403097 -0.2090925 -0.1219751 -0.056985624 -0.14519666 -0.21674468
-0.2182398 -0.17796516 -0.12946586 -0.060517684 -0.0055138897 0.009775247 -0.030079255 0.013636181
-0.02807579 0.005219268 0.029269561 -0.14492762 -0.117395855 -0.04764116 -0.09962218 -0.03953675
-0.02482051 -0.00912226 -0.20836978 -0.06621828 -0.001034007 0.08137224 0.024858465 -0.108343974
-0.12658627 -0.037529696 -0.12459336 -0.14042443 -0.050879255 -0.024830667 -0.09122088 -0.15074244
0.026362814 0.0036304307 0.0014835213 -0.028680926 0.016583975 -0.010537314 -0.016829126 -0.17003122
-0.023736866 0.13065563 -0.003193928 0.018041633 -0.054021504 0.09004376 -0.013482093 0.06471829
0.20780051 0.14982311 0.095586225 0.003033131 0.14128512 -0.02414329 -0.22553186 -0.13900319
-0.16959758 0.01163781 -0.07877496 -0.06572358 -0.14241783 0.036014467 0.06869323 -0.017167067
-0.0038246172 0.012262512 0.069272555 -0.12354864 -0.16222627 0.05772196 -0.13933009 -0.014859822
-0.056593698 -0.120757885 -0.0756096 0.009982017 0.09380063 0.05921614 0.06111062 -0.15604666
-0.09727507 -0.07014819 -0.13988437 -0.25131634 -0.20163715 -0.25902236 -0.22888781 -0.17902601
-0.21980654 0.047022317 0.131386 0.13730976 -0.02078085 -0.0035269815 -0.14056742 -0.08569151
0.015347951 -0.05104508 -0.1175369 -0.033724234 -0.15544996 -0.23889428 -0.08309121 -0.21279313
-0.20076792 -0.17982392 -0.17717461 -0.07688722 0.018671397 -0.013890069 -0.007743099 -0.0055242307
-0.006213666 -0.07992388 -0.042106204 0.0052332007 -0.029293753 0.21797377 0.09786883 0.22425674
0.008748544 0.051994767 -0.08052233 -0.060175955 0.067339234 0.025220513 -0.050667744 -0.022443356
-0.09117845 -0.033272706 -0.24415362 -0.2668682 -0.13951026 -0.09629808 -0.07014191 0.039047543
0.086732626 -0.064106286 -0.015773892 -0.091277495 -0.04531259 -0.0021600649 0.034402873 0.0524012
0.02590149 -0.026519047 0.0899734 -0.0917261 -0.026831478 -0.0010699024 -0.052240733 -0.024109397
0.2031752 0.24264435 0.1690475 -0.061614398 -0.09196699 -0.21233511 -0.1995966 -0.0450864
-0.037827656 0.039628264 0.027290158 0.07946143 -0.07881158 -0.088620275 -0.023932982 0.05142698
0.08443015 0.08190192 0.13389362 -0.021299157 0.25541353 0.20677988 0.017706439 -0.14173989
-0.077209346 -0.06256365 0.12412813 0.08540394 0.13575184 0.16894324 0.07218325 -0.10923507
-0.10501794 -0.19369338 -0.03349728 0.15738598 0.1751513 0.18407083 0.12142465 0.004447773
-0.08708413 -0.11595122 0.022861788 0.06981592 0.052616943 0.12722845 0.06331052 -0.044891845
-0.10115906 0.015154485 0.13179827 -0.09241513 -0.04352842 0.09366741 0.21963519 0.12878193
00000000: 01f2 31ba 385c fdbc 17b2 abbc dc62 043b
00000010: c440 033d 9c13 ae3c a581 003c a1c8 493c
00000020: ca75 783b 131b f4bb eede 62bb 7787 82bb
00000030: c09c dcbc 7e7b 34bd 702f 3f3d 5be1 bebc
00000040: 85ef d4bc b3ae a1bc 2ac0 6c3c 2088 05bd
00000050: 1049 0ebd 40c0 123c dcc3 a5ba 4a75 98ba
00000060: a857 e3bc 863e 0bbd 3351 8fbc 53ad a13b
00000070: 51ae dc3c d72f 2d3c 3c25 2f3c 3cf8 d7bc
00000080: ce30 00bd dead f8bc 236b 29bd 634d 0abd
00000090: f67a 4dbd de52 65bd f0f3 42bd 5ecd 11be
000000a0: b636 0bbe 58b8 10bd 6e18 acbd 581c 56be
000000b0: 15ce f9bd c269 69bd 6fae 14be 51f2 5dbe
000000c0: 417a 5fbe 803c 36be b392 04be 64e1 77bd
000000d0: dcad b4bb 5c28 203c c568 f6bc 4a6a 5f3c
000000e0: 33ff e5bc 6506 ab3b b8c6 ef3c e867 14be
000000f0: 3d6d f0bd 6123 43bd b706 ccbd 4af1 21bd
00000100: 6254 cbbc 8875 15bc e35e 55be 739d 87bd
00000110: 8487 87ba 7da6 a63d fba3 cb3c 72e3 ddbd
00000120: d59f 01be bdb8 19bd ce2a ffbd 6ccb 0fbe
00000130: c466 50bd af69 cbbc 03d2 babd 3a5c 1abe
00000140: d4f6 d73c 85ec 6d3b b772 c23a 43f4 eabc
00000150: 1edb 873c b3a4 2cbc 3cdd 89bc aa1c 2ebe
00000160: d173 c2bc 97ca 053e 3851 51bb 0ccc 933c
00000170: a745 5dbd dd68 b83d ffe3 5cbc 068b 843d
00000180: a8c9 543e 3b6b 193e b6c2 c33d 7ec7 463b
00000190: 0cad 103e 26c8 c5bc d3f1 66be da56 0ebe
000001a0: fdaa 2dbe 83ac 3e3c c454 a1bd 169a 86bd
000001b0: fbd5 11be e883 133d 09af 8c3d f3a1 8cbc
000001c0: 6ea6 7abb b4e8 483c c5de 8d3d 1207 fdbd
000001d0: a51e 26be dd6d 6c3d 8cac 0ebe 9c76 73bc
000001e0: cbce 67bd e94f f7bd 35d9 9abd 9d8b 233c
000001f0: 8b1a c03d a08c 723d 214f 7a3d b2ca 1fbe
00000200: 2738 c7bd dba9 8fbd d93d 0fbe 89ac 80be
00000210: f879 4ebe 949e 84be 9161 6abe 9852 37be
00000220: f714 61be 799a 403d 0d8a 063e ee9a 0c3e
00000230: 9a3c aabc ee24 67bb e8f0 0fbe 087f afbd
00000240: f975 7b3c a514 51bd 30b7 f0bd 6c22 0abd
00000250: 462e 1fbe b4a0 74be b92b aabd 71e6 59be
00000260: 1b96 4dbe c323 38be 436d 35be 0c77 9dbd
00000270: c2f4 983c 2c93 63bc d2b9 fdbb 9b04 b5bb
00000280: 029c cbbb 22af a3bd 8e77 2cbd 457b ab3b
00000290: 74f9 efbc 8434 5f3e 746f c83d 8fa3 653e
000002a0: 0e56 0f3c 77f8 543d e4e8 a4bd 107b 76bd
000002b0: 27e9 893d 409b ce3c fb88 4fbd 21db b7bc
000002c0: c4bb babd f648 08bd 6803 7abe f3a2 88be
000002d0: c7db 0ebe ee37 c5bd 90a6 8fbd 51f0 1f3d
000002e0: e0a0 b13d 284a 83bd 4038 81bc b2ef babd
000002f0: b299 39bd e08f 0dbb 07ea 0c3d a4a2 563d
00000300: 5d2f d43c 793e d9bc f943 b83d e5da bbbd
00000310: b0cd dbbc f83b 8cba 61fa 55bd 1281 c5bc
00000320: 290d 503e c377 783e ca1a 2d3e 615f 7cbd
00000330: 3059 bcbd 606e 59be 0d63 4cbe 84ac 38bd
00000340: 2cf1 1abd 3f51 223d 9c8f df3c adbc a23d
00000350: f767 a1bd 8c7e b5bd 1a0f c4bc 19a5 523d
00000360: b7e9 ac3d 32bc a73d 691b 093e 927b aebc
00000370: 90c5 823e 1bbe 533e 180d 913c 4324 11be
00000380: ef1f 9ebd 5f21 80bd e436 fe3d 43e8 ae3d
00000390: 8802 0b3e 75ff 2c3e d0d4 933d a3b6 dfbd
000003a0: a513 d7bd 8f57 46be 7234 09bd ca29 213e
000003b0: dd5a 333e 107d 3c3e 7dad f83d a0be 913b
000003c0: 2a59 b2bd d577 edbd a548 bb3c a6fb 8e3d
000003d0: dd84 573d 2d48 023e f2a8 813d 83e0 37bd
000003e0: 7b2c cfbd 844a 783c 20f6 063e 2544 bdbd
000003f0: db4a 32bd b3d4 bf3d 0ce8 603e 69df 033e

dense_layers.0.bias f4 [256]
-0.041615266 0.15322296 -0.18367599 0.08421544 0.0021234746 -0.11912506 0.078008965 0.23081322
-0.0032021073 -0.07286569 0.107128315 0.04548586 0.15010509 0.052624404 -0.026402196 -0.06882135
-0.043589003 0.07885879 0.039900973 -0.15928327 0.09694269 0.11448019 -0.14205137 -0.05316797
-0.08881425 -0.14172535 0.04724538 0.04097163 -0.13588618 -0.15882894 0.1711228 0.15763478
0.24217969 -0.070923194 -0.19375381 0.06579803 0.07323333 0.06976246 0.049917836 -0.020305676
0.08750227 0.16091564 0.11215673 -0.10679972 0.105544895 -0.00031230398 0.37059796 -0.014459972
0.09875698 0.02642198 0.3484032 -0.02279929 -0.016586192 0.06520086 -0.0338838 0.10140389
-0.09585933 0.07045649 -0.049765196 -0.045218665 -0.14620878 0.11722498 -0.07650338 -0.005310405
-0.12753838 0.15398613 -0.027329369 0.10036582 -0.22568685 -0.12549151 -0.11207156 -0.10038106
-0.24525005 -0.033481106 0.031556346 -0.1459928 -0.08053929 -0.18464439 -0.03546271 -0.16320744
-0.051335122 0.003819338 -0.07363479 0.09283437 -0.08616076 -0.07374362 -0.1790253 0.1678068
0.22678678 0.0068758484 -0.012928842 -0.049192376 -0.11952825 0.21751213 0.026531475 0.07306357
-0.04521457 0.12281504 -0.027678594 0.11316912 0.061091825 -0.09610876 0.07518235 -0.15322481
-0.04146898 0.07446193 -0.07282467 -0.016168935 -0.016855264 -0.11716153 0.22875784 0.051576305
0.33402836 0.28564763 -0.006952552 -0.2297421 -0.11631068 -0.089976 -0.0573492 0.27675545
0.03832536 -0.028553737 -0.06681396 -0.041704763 0.16208018 0.14804897 -0.09013028 -0.03522215
-0.027188145 -0.22829975 -0.21090245 -0.03637038 -0.029541582 0.03613578 0.028734576 0.03094614
0.072622634 0.0370087 -0.31686404 -0.14795941 -0.15897767 0.12026202 -0.016084857 -0.017926104
0.26248738 -0.07604776 0.086112246 0.048976906 0.08317978 -0.008365549 -0.19061756 0.010731357
0.12108398 -0.015991943 0.060193434 0.18740745 -0.0138420155 0.0049082926 0.09262128 -0.059849013
0.084883936 0.007523049 -0.0065503945 -0.0412323 -0.024911577 -0.08921157 -0.078933835 -0.009515852
-0.112484775 -0.11379254 0.017339956 -0.12614276 -0.11066402 0.012665987 0.038635064 -0.11124748
-0.101612434 0.27585813 -0.03731777 0.07281452 0.12512727 -0.017663881 -0.16997235 -0.07986696
0.048987832 0.004153257 0.15009719 -0.14272153 -0.2509117 -0.03861401 -0.13623032 0.16746473
0.014896535 0.10026353 -0.04256279 -0.0004211276 0.03624251 -0.024659824 0.030507348 -0.03375713
-0.11049832 0.031949647 0.016558336 0.16467954 0.08718662 -0.2975028 0.1536523 -0.23318034
0.14781399 -0.029028546 0.06026035 -0.0791631 -0.008599932 0.1202523 0.074516475 0.324144
0.10686934 0.10553259 -0.05188627 0.020949794 0.025374439 0.028796908 -0.018129287 -0.18439159
-5.1151765e-06 -0.05818659 0.29992375 -0.08655083 -0.1985485 -0.2333921 0.075662956 0.21126717
-0.15035899 0.11138634 0.06633 0.122455515 -0.093307264 0.09166487 -0.08331697 -0.2370399
0.07244376 0.12108508 -0.021379799 -0.10315791 0.13970941 -0.07647373 0.06524781 -0.099443756
-0.14268535 -0.04142906 -0.021624135 0.019595755 -0.052335024 -0.004408875 -0.23647746 -0.031015243
00000000: c574 2abd 7be6 1c3e 8f15 3cbe 2579 ac3d
00000010: fe29 0b3b d7f7 f3bd 2ac3 9f3d 4d5a 6c3e
00000020: 72da 51bb 9b3a 95bd 1766 db3d 624f 3a3d
00000030: 26b5 193e b08c 573d 6b49 d8bc 35f2 8cbd
00000040: 628a 32bd b880 a13d 346f 233d 271b 23be
00000050: e489 c63d 9774 ea3d ea75 11be a8c6 59bd
00000060: 3fe4 b5bd 7320 11be 5f84 413d ded1 273d
00000070: bf25 0bbe 0ea4 22be d13a 2f3e 036b 213e
00000080: f4fd 773e 2e40 91bd 6667 46be 1ec1 863d
00000090: 5bfb 953d 9fdf 8e3d a576 4c3d 1758 a6bc
000000a0: 6434 b33d 12c7 243e 6db2 e53d d0b9 dabd
000000b0: ec27 d83d bbbc a3b9 04bf bd3e 85e9 6cbc
000000c0: 1941 ca3d e872 d83c e761 b23e 94c5 babc
000000d0: c4df 87bc 0788 853d bdc9 0abd d8ac cf3d
000000e0: e551 c4bd 7e4b 903d 97d6 4bbd 3537 39bd
000000f0: c1b7 15be a613 f03d cead 9cbd e802 aebb
00000100: 6c99 02be 8aae 1d3e d7e1 dfbc 988c cd3d
00000110: 741a 67be d980 00be c685 e5bd 9694 cdbd
00000120: d422 7bbe 7c23 09bd 3a41 013d 237f 15be
00000130: c9f1 a4bd 6b13 3dbe 5941 11bd da1f 27be
00000140: c744 52bd dc4d 7a3b d6cd 96bd f21f be3d
00000150: 0d75 b0bd e506 97bd 6952 37be 8cd5 2b3e
00000160: cb3a 683e cc4e e13b 7ed3 53bc f27d 49bd
00000170: 3acb f4bd 80bb 5e3e 8958 d93c 5aa2 953d
00000180: ea32 39bd 7486 fb3d 38be e2bc 36c5 e73d
00000190: 6c3b 7a3d abd4 c4bd 34f9 993d f7e6 1cbe
000001a0: 61db 29bd 7f7f 983d 1a25 95bd b774 84bc
000001b0: 0d14 8abc 62f2 efbd 7f3f 6a3e ad41 533d
000001c0: c405 ab3e 6840 923e 3cd2 e3bb 8341 6bbe
000001d0: 4b34 eebd 5645 b8bd ffe6 6abd e4b2 8d3e
000001e0: 0dfb 1c3d 87e9 e9bc c2d5 88bd 9dd2 2abd
000001f0: 59f8 253e 269a 173e 3996 b8bd 1a45 10bd
00000200: acb9 debc 69c7 69be d0f6 57be 1cf9 14bd
00000210: 3001 f2bc 1d03 143d c664 eb3c c282 fd3c
00000220: 2dbb 943d 6f96 173d 013c a2be ac82 17be
00000230: 0bcb 22be ef4b f63d 64c4 83bc c4d9 92bc
00000240: bf64 863e eebe 9bbd 9e5b b03d 029c 483d
00000250: 295a aa3d a80f 09bc 4031 43be 93d2 2f3c
00000260: e1fa f73d 8901 83bc 648d 763d bde7 3f3e
00000270: 9fc9 62bc bed5 a03b 3ab0 bd3d 3d24 75bd
00000280: a1d7 ad3d e983 f63b b1a4 d6bb 33e3 28bd
00000290: 5d13 ccbc 8eb4 b6bd 10a8 a1bd 60e8 1bbc
000002a0: 6b5e e6bd 100c e9bd 860c 8e3c 912b 01be
000002b0: d1a3 e2bd 0085 4f3c cd3f 1e3d b8d5 e3bd
000002c0: 2e1a d0bd 473d 8d3e 85da 18bd c71f 953d
000002d0: 5d21 003e d8b3 90bc 3b0d 2ebe 4a91 a3bd
000002e0: 77a7 483d 0b18 883b 14b3 193e 9825 12be
000002f0: 8077 80be b929 1ebd f67f 0bbe e07b 2b3e
00000300: 9910 743c f756 cd3d 5256 2ebd caca dcb9
00000310: 0773 143d 6603 cabc 8cea f93c eb44 0abd
00000320: f14c e2bd a2dd 023d 59a5 873c c1a1 283e
00000330: e68e b23d 4952 98be 0757 1d3e d4c6 6ebe
00000340: 8d5c 173e 46cd edbc 8fd3 763d 4320 a2bd
00000350: bbe6 0cbc d646 f63d 189c 983d 34f6 a53e
00000360: 50de da3d 7821 d83d b386 54bd e79e ab3c
00000370: 0ede cf3c 7ee7 eb3c df83 94bc 26d1 3cbe
00000380: 08a3 abb6 1055 6ebd 9b8f 993e 9041 b1bd
00000390: 4c50 4bbe 57fe 6ebe 2ef5 9a3d 6c56 583e
000003a0: b5f7 19be 851e e43d 06d8 873d f5c9 fa3d
000003b0: e117 bfbd cbba bb3d 16a2 aabd 96ba 72be
000003c0: 655d 943d 74fb f73d b024 afbc 7444 d3bd
000003d0: fc0f 0f3e 429e 9cbd a5a0 853d 2ba9 cbbd
000003e0: 1c1c 12be 85b1 29bd 1925 b1bc 4787 a03c
000003f0: 405d 56bd 5378 90bb 2627 72be ae13 febc

dense_layers.2.weight f4 [10, 256]
-0.3035379 -0.59562784 -0.35539111 -0.2799535 -0.47111213 -0.070748076 -0.035081256 -0.14957067
0.07743813 0.09350348 0.15490136 0.10601972 0.21002336 -0.36919636 0.23605147 0.09393106
-0.37565184 0.3363187 -0.23348136 0.05384367 0.14525464 -0.054269526 -0.072425745 0.045334682
0.018600727 0.1323477 -0.17620811 0.105165064 -0.07805544 0.05750026 -0.15286036 0.060823422
-0.12242135 0.019067176 -0.44112253 -0.15089826 0.09786242 0.28770593 -0.17570983 -0.010701
0.116698205 -0.08915972 -0.7582677 0.025745122 -0.20664589 0.13695157 -0.64507735 0.16080609
0.04799434 -0.0059159473 0.15649845 0.16640572 -0.15225074 -0.3379856 0.28112847 -0.50507516
-0.5225265 -0.2238788 -0.2732126 0.08618345 -0.5657808 -0.1460725 0.1844113 -0.6794129
0.16604795 0.31218702 0.10834333 -0.41673252 -0.25055733 0.30041128 -0.16428728 0.010613277
0.09244372 0.08336616 -0.10806257 0.03563029 -0.00021755029 -0.2855902 -0.06015065 0.05221977
0.20004177 -0.11818533 -0.04374925 0.031701252 0.14341691 0.057960056 0.022067724 0.27332544
-0.5936173 -0.061590943 0.09137258 0.075625345 0.090984076 -0.05539109 0.06934686 0.10686142
0.06879105 0.024787275 -0.02471415 0.20459782 -0.33475664 -0.15357521 -0.13974902 -0.074015945
0.15172642 -0.25210154 -0.16006841 -0.22154526 -0.060387444 0.31581753 -0.40345252 -0.2910369
-0.19510488 -0.22074254 0.072636805 -0.09500628 0.08178887 -0.005616931 0.08625046 0.12906523
-0.4027518 -0.61365205 -0.25467908 0.15042119 0.16448565 -0.07427472 0.024099685 0.0031802452
-0.4913616 0.11764888 -0.010557052 -0.14927402 -0.84806824 0.4897756 -0.13842507 -0.02119523
-0.26533002 0.16548233 -0.21246998 -0.5188801 -0.10507081 0.0603661 0.14502843 -0.5885262
-0.42012265 -0.09923895 0.061516013 -0.24966855 0.004887729 0.015934097 0.0017182634 -0.1059059
0.2289172 -0.45403844 -0.12393424 0.07886216 -0.7128072 -0.28872713 0.099805616 0.12303137
-0.053609416 0.01632393 0.15270638 0.1611288 -0.113503985 0.055983793 0.1924039 -0.09109165
0.073230304 0.15893662 -0.7038223 -0.34538785 -0.19664413 0.15656054 0.094624065 0.051662903
0.39147732 -0.8284011 -0.79729664 0.11595422 0.02217016 0.027483035 -0.13884932 0.15437424
0.09290256 0.101825155 -0.37874472 0.10563231 -0.05824106 0.21894388 -0.07975374 0.058310345
-0.03960122 0.06471038 0.112560034 -0.01775754 -0.13224651 -0.04672776 -0.40894288 -0.053120114
0.21704626 -0.13563287 0.18494442 -0.068758 -0.20738328 -0.17953585 0.22767237 -0.14788792
-0.57843095 0.12741682 0.10702242 0.10972814 0.08530093 -0.7083714 0.17371613 -0.641275
0.10159068 -0.70460314 0.17252332 -0.5409616 -0.3997275 0.1750787 -0.13159956 -0.4178245
-0.0010455305 -0.015369305 -0.19087516 -0.14725238 -0.02160032 0.103693515 0.11544085 -0.11421406
0.19609535 0.10412822 0.11383316 -0.45193714 -0.014049017 0.14369912 0.092058696 -0.17974283
-0.0051375246 0.045521174 -0.0029977076 0.11728238 -0.4081352 0.09576601 -0.34570462 0.053944193
0.012526597 0.12645663 -0.7142772 0.05362549 -0.044827953 -0.27653146 -0.05641024 0.12779477
00000000: 5269 9bbe 117b 18bf d3f5 b5be 1156 8fbe
00000010: 9c35 f1be 5ee4 90bd 5db1 0fbd 0e29 19be
00000020: e297 9e3d c17e bf3d 769e 1e3e de20 d93d
00000030: 5d10 573e 4e07 bdbe 7ab7 713e ed5e c03d
00000040: 7055 c0be f731 ac3e bd15 6fbe 2e8b 5c3d
00000050: a2bd 143e b949 5ebd f353 94bd dcb0 393d
00000060: 8d60 983c 2886 073e e66f 34be c860 d73d
00000070: 88db 9fbd 6585 6b3d 6d87 1cbe fb21 793d
00000080: 0bb8 fabd c432 9c3c d0da e1be 1385 1abe
00000090: 186c c83d 314e 933e 47ed 33be 3f53 2fbc
000000a0: 78ff ee3d 5f99 b6bd d51d 42bf 6fe7 d23c
000000b0: fb9a 53be 083d 0c3e ca23 25bf 5aaa 243e
000000c0: b795 443d 90da c1bb 2141 203e 4366 2a3e
000000d0: 9ee7 1bbe 730c adbe 12f0 8f3e 9b4c 01bf
000000e0: 4cc4 05bf 7c40 65be 86e2 8bbe f380 b03d
000000f0: 03d7 10bf 0894 15be 51d6 3c3e 01ee 2dbf
00000100: 7908 2a3e fad6 9f3e 1ce3 dd3d f75d d5be
00000110: 0d49 80be 82cf 993e ed3a 28be 4fe3 2d3c
00000120: 2253 bd3d e1bb aa3d e94f ddbd 11f1 113d
00000130: 361e 64b9 e138 92be 8760 76bd 66e4 553d
00000140: c0d7 4c3e 260b f2bd 6a32 33bd 2cd9 013d
00000150: e2db 123e 8667 6d3d 5fc7 b43c 50f1 8b3e
00000160: 4ef7 17bf c946 7cbd 8c21 bb3d 76e1 9a3d
00000170: dc55 ba3d c5e1 62bd ba05 8e3d 29da da3d
00000180: 52e2 8c3d af0e cb3c 5475 cabc 1782 513e
00000190: 3965 abbe d242 1dbe 5e1a 0fbe ac95 97bd
000001a0: 2c5e 1b3e 7413 81be f9e8 23be c3dc 62be
000001b0: d358 77bd d6b2 a13e 5491 cebe ca02 95be
000001c0: 93c9 47be 550a 62be 9bc2 943d a792 c2bd
000001d0: ec80 a73d 3b0e b8bb 15a4 b03d ad29 043e
000001e0: 7c35 cebe 4d18 1dbf 4c65 82be 0308 1a3e
000001f0: ed6e 283e 581d 98bd b46c c53c a96b 503b
00000200: bf93 fbbe e5f1 f03d 7cf7 2cbc 4adb 18be
00000210: 001b 59bf dec3 fa3e 4dbf 0dbe 9ea1 adbc
00000220: 56d9 87be 3374 293e bb91 59be 54d5 04bf
00000230: 5d2f d7bd 7242 773d 5582 143e a7a9 16bf
00000240: 511a d7be ca3d cbbd 37f8 7b3d 1da9 7fbe
00000250: 3e29 a03b 3988 823c 5a37 e13a 31e5 d8bd
00000260: 4569 6a3e ba77 e8be 3cd1 fdbd 7c82 a13d
00000270: 887a 36bf 0bd4 93be e366 cc3d dff7 fb3d
00000280: 8c95 5bbd c3b9 853c 105f 1c3e f3fe 243e
00000290: c774 e8bd 434f 653d 8705 453e 428e babd
000002a0: c5f9 953d 48c0 223e b32d 34bf add6 b0be
000002b0: 145d 49be 6851 203e 43ca c13d 7b9c 533d
000002c0: b76f c83e 1812 54bf a21b 4cbf 6879 ed3d
000002d0: 329e b53c 1a24 e13c 842e 0ebe 4814 1e3e
000002e0: b343 be3d b589 d03d d4ea c1be c155 d83d
000002f0: 2d8e 6ebd d332 603e ee55 a3bd d4d6 6e3d
00000300: e434 22bd e086 843d e085 e63d 4378 91bc
00000310: a16b 07be 9c65 3fbd f660 d1be 7a94 59bd
00000320: 6041 5e3e 58e3 0abe 1262 3d3e ffd0 8cbd
00000330: 485c 54be 3fd8 37be f222 693e ee6f 17be
00000340: 0d14 14bf 8e79 023e 922e db3d 26b9 e03d
00000350: 41b2 ae3d d457 35bf a4e2 313e 992a 24bf
00000360: c60e d03d df60 34bf f4a9 303e 767c 0abf
00000370: 15a9 ccbe d547 333e 09c2 06be 18ed d5be
00000380: 2f0a 89ba 8acf 7bbc c774 43be 54c9 16be
00000390: 27f3 b0bc 445d d43d 416c ec3d 10e9 e9bd
000003a0: 38cd 483e 2d41 d53d 5c21 e93d 4e64 e7be
000003b0: d92d 66bc dd25 133e 4589 bc3d 810e 38be
000003c0: ae58 a8bb 6974 3a3d 3075 44bb bf31 f03d
000003d0: 19f7 d0be f820 c43d 3200 b1be 96f4 5c3d
000003e0: 5b3c 4d3c d97d 013e dfda 36bf 67a6 5b3d
000003f0: 849d 37bd 8895 8dbe 6c0e 67bd a2dc 023e

dense_layers.2.bias f4 [10]
-0.12306207 -0.12058479 -0.07017101 -0.12698384 0.13344021 0.09152559 0.05181459 0.008057157
0.12259167 0.0921993
00000000: f707 fcbd 29f5 f6bd d2b5 8fbd 0d08 02be
00000010: 8da4 083e c571 bb3d 893b 543d 2a02 043c
00000020: 5711 fb3d fdd2 bc3d
